…
0, 0, 0, 0, 0, 0, 0, 0, 0, 0, 0, 0, 0, 0, 0, 0, 0, 0, 0, 0, 0, 0, 0, 0, 0, 0, 0, 0, 0, 0, 0, 0, 0, 0, 0, 0, 0, 0, 0, 0, 0, 0, 0, 0, 0, 0, 0, 0, 0, 0, 0, 0, 0, 0, 0, 0, 0, 0, 0, 0, 0, 0, 0, 0, 0, 0, 0, 0, 0, 0, 0, 0, 0, 0, 0, 0, 0, 0, 0, 0, 0, 0, 0, 0, 0, 0, 0, 0, 0, 0, 0, 0, 0, 0, 0, 0, 0, 0, 0, 0, 0, 0, 0, 0, 0, 0, 0, 0, 0, 0, 0, 0]], -1, False, {})
Model: "sequential"
_________________________________________________________________
 Layer (type)                Output Shape              Param #   
=================================================================
 dense (Dense)               (None, 410, 8)            3288      
                                                                 
 dense_1 (Dense)             (None, 410, 8)            72        
                                                                 
 dense_2 (Dense)             (None, 410, 8)            72        
                                                                 
 dense_3 (Dense)             (None, 410, 8)            72        
                                                                 
 dense_4 (Dense)             (None, 410, 8)            72        
                                                                 
 flatten (Flatten)           (None, 3280)              0         
                                                                 
 dense_5 (Dense)             (None, 5)                 16405     
                                                                 
=================================================================
Total params: 19,981
Trainable params: 19,981
Non-trainable params: 0
_________________________________________________________________
Training for 50000 steps ...
Interval 1 (0 steps performed)
